occlusion detector.pth (torch, 409863 bytes, 14 tensors)

module.layer1.0.weight f4 [32, 1, 3, 3]
0	0x3ee46322	0.44606882
1	0x3f0aa984	0.5416491
2	0x3e6bebc2	0.23039153
3	0xbf21b7f6	-0.6317133
4	0xbec6a7c2	-0.38799864
5	0xbddada7a	-0.10686202
6	0xbf228439	-0.63483006
7	0x3ea5cf02	0.32384497
8	0xbc0ea721	-0.008706839
9	0xbfb63ec6	-1.4237907
10	0xbef4d322	-0.47817332
11	0x3d835400	0.06412506
12	0xbf073639	-0.5281711
13	0xbecb5ac4	-0.39717686
14	0x3d5d853e	0.054082148
15	0x3df16d6d	0.117884494
16	0x3f12b7e0	0.5731182
17	0xbe003d12	-0.12523296
18	0xbf24791f	-0.64247316
19	0xbeea3437	-0.45742962
20	0x3f179374	0.5920937
21	0x3db0a927	0.08626013
22	0xbfe3143e	-1.7740552
23	0xbcfa7bbc	-0.03057658
24	0xbff4b8a0	-1.9118843
25	0xbe5d789d	-0.21628042
26	0x3ed8ae7b	0.42320618
27	0xbe185160	-0.14874792
28	0x3ebe31a1	0.3714724
29	0x3df16ab1	0.11787928
30	0xbdbd8ac7	-0.09254985
31	0xbe90eb0e	-0.28304332
32	0x3dcb2cb4	0.09920636
33	0x3e4e0452	0.20118836
34	0xbd25f127	-0.040513184
35	0xbeaa5698	-0.3326919
36	0x3eca1904	0.3947221
37	0x3f47aa17	0.7799391
38	0x3e139a2e	0.14414284
39	0xbe8ef233	-0.27919158
40	0x3eefb7fe	0.46820062
41	0x3dad130b	0.08450898
42	0xbd9df749	-0.077131815
43	0xbe251428	-0.1612097
44	0xbe4acef7	-0.19805513
45	0x3d4fb0c9	0.050705705
46	0x3ed65f6c	0.41869676
47	0x3e983d11	0.2973409
48	0x3df08b0f	0.11745273
49	0x3f17e8a7	0.59339374
50	0x3deb2599	0.114817806
51	0xbfc8b239	-1.5679389
52	0x3e5322cc	0.20618743
53	0xbecdc033	-0.401857
54	0x3e2c6e41	0.16838934
55	0xbf05cde7	-0.5226731
56	0xbf223b0d	-0.63371354
57	0x3f26b3b1	0.6511794
58	0x3eb65cae	0.35617584
59	0x3efcf235	0.4940354
60	0x3cfb4feb	0.030677756
61	0xbe43af8d	-0.19109936
62	0xbedf5b23	-0.4362422
63	0x3eca62eb	0.39528593
64	0x3f183ab1	0.59464556
65	0x3f0cb385	0.54961425
66	0xbfda25ee	-1.7042825
67	0xbebaa390	-0.36452913
68	0xbf0b62bb	-0.54447526
69	0xbffe066f	-1.9845713
70	0xbe1f16ed	-0.15536089
71	0xbe9804f0	-0.29691267
72	0xc008cca1	-2.1374896
73	0x3d4e539d	0.05037271
74	0xbeb0b4ed	-0.34513035
75	0xbf4579dd	-0.77139074
76	0x3efb7582	0.4911309
77	0xbcc70ac5	-0.024297128
78	0xbbd426e2	-0.0064743618
79	0x3e3fec88	0.18742573
80	0xbdf0c028	-0.11755401
81	0xbe0dfe1b	-0.13866465
82	0xbdedf196	-0.116183445
83	0xbdb4e68b	-0.08833035
84	0xbd157d4b	-0.03649644
85	0x3dd91c57	0.106011085
86	0xbe48519c	-0.19562382
87	0xbea1c8e0	-0.31598568
88	0xbe9edc04	-0.31027234
89	0x3e6779f3	0.22605114
90	0xbfb4ef60	-1.4135551
91	0xbb30e4d0	-0.0026991852
92	0xbcb37cfd	-0.021910185
93	0xbfb2cd22	-1.3968852
94	0x3eb60a86	0.35554904
95	0xbefde33d	-0.49587432
96	0x3e4d664d	0.20058556
97	0x3ecd7829	0.40130737
98	0x3efd0bf1	0.49423173
99	0x3cbd4a1c	0.023106627
100	0x3ef5cd16	0.4800803
101	0xbe8c1579	-0.27360132
102	0xbfa37daf	-1.277273
103	0x3f2d8ec7	0.67795986
104	0xbe93a5b9	-0.28837374
105	0xbf90329a	-1.1265442
106	0xbfa29c14	-1.2703881
107	0x3f0dea14	0.554353
108	0x3c65ab85	0.014017944
109	0x3b2e56b6	0.0026601977
110	0x3bbd2129	0.0057717753
111	0x3e5557dc	0.20834297
112	0x3ed8e976	0.42365617
113	0xbe6667b0	-0.22500491
114	0xbd372f30	-0.044722736
115	0x3dc8265c	0.097729415
116	0x3e4a4ed4	0.19756633
117	0x3e88a8b0	0.26691198
118	0x3e807122	0.25086313
119	0xbd73ff52	-0.059569664
120	0xbc333b34	-0.010939408
121	0xbe88973e	-0.2667789
122	0xbd84680f	-0.0646516
123	0xbe87adb1	-0.26499704
124	0xbd8bb82e	-0.06822239
125	0x3d268bd3	0.04066069
126	0x3f361e05	0.71139556
127	0x3f39c23f	0.7256202
128	0x3f33f266	0.70291746
129	0xc00c25ac	-2.1897993
130	0xbfca1913	-1.5788902
131	0xbe5064e5	-0.20350988
132	0xbfb9d122	-1.4516947
133	0xbf5889c2	-0.845852
134	0x3f09cb1a	0.53825533
135	0x3d6a5f85	0.05722
136	0x3eae066e	0.3398928
137	0xbe47162f	-0.19442056
138	0x3d8ce98e	0.068804845
139	0x3ea48144	0.32129872
140	0xbe08c101	-0.13354875
141	0xbe0d8365	-0.13819654
142	0x3de4ec80	0.11177921
143	0xbd03a622	-0.03214086
144	0xbf9188a1	-1.1369821
145	0xbeac2b56	-0.33626813
146	0xbd0bfb6c	-0.03417532
147	0xbf33655c	-0.7007654
148	0xbf099530	-0.5374327
149	0x3e898b03	0.2686387
150	0x3ea5a4ee	0.32352394
151	0x3efe35b5	0.4965035
152	0x3e9d7d68	0.3075974
153	0xbe39acb5	-0.18132289
154	0xbd8dc5eb	-0.069225155
155	0x3e080d93	0.13286428
156	0x3e0d34bf	0.13789652
157	0x3edf1162	0.4356795
158	0x3d735250	0.05940467
159	0x3d6c64f7	0.057713475
160	0x3eff9b8f	0.4992337
161	0x3de5aea0	0.11214948
162	0xbf08a0c7	-0.53370327
163	0x3f34fd2b	0.70698804
164	0xbe386b15	-0.18009599
165	0x3ef340f3	0.4751049
166	0xbf402f15	-0.7507184
167	0x3e6316dd	0.2217669
168	0xbe98c514	-0.2983786
169	0xbe5b0b2d	-0.21390982
170	0x3e25b8c3	0.16183762
171	0xbe1e312e	-0.15448448
172	0xbd12ad00	-0.035809517
173	0xbea4e2c0	-0.32204247
174	0xbb4984ab	-0.0030749242
175	0xbe91fd5b	-0.28513607
176	0xbe94945a	-0.29019433
177	0xbe30398b	-0.17209451
178	0xbe1bf993	-0.15231924
179	0xbe814acc	-0.25252378
180	0xbc44274f	-0.0119722625
181	0xbf083184	-0.53200555
182	0x3d716bca	0.058940686
183	0x3efbd2be	0.4918422
184	0x3d1879aa	0.037225403
185	0x3ee0cc90	0.4390607
186	0xbd98f22c	-0.074680656
187	0xbf099929	-0.5374933
188	0x3ebed8be	0.37274736
189	0x3e9b7755	0.3036448
190	0x3e243c99	0.16038741
191	0x3e611db6	0.2198399
192	0xc0005fe6	-2.0058532
193	0xbe588ad5	-0.2114671
194	0xbed1ea99	-0.40999296
195	0x3e2196f0	0.15780234
196	0x3f4493f6	0.7678827
197	0xbdbf3572	-0.09336366
198	0x3f00dbca	0.5033537
199	0x3e56bf78	0.20971477
200	0x3e341771	0.17587067
201	0xbeb17a9f	-0.34663865
202	0x3ecba199	0.39771727
203	0xbf6c49af	-0.9229993
204	0xbe30adb4	-0.17253762
205	0x3f20ce6a	0.6281496
206	0xbf23a54c	-0.639241
207	0x3ce8cee8	0.028418973
208	0x3e51418b	0.20435159
209	0x3e41f3ef	0.1894071
210	0x3d526a9f	0.051371213
211	0xbe22f94e	-0.15915415
212	0xbe908599	-0.28226927
213	0xbc17a61f	-0.009255915
214	0xbe9c9536	-0.3058259
215	0x3bc4f52e	0.006010673
216	0x3efe53e8	0.4967339
217	0xbefe9f69	-0.49730995
218	0xbd18d5ad	-0.037313152
219	0xbe251000	-0.16119385
220	0xbde83981	-0.11339093
221	0xbeb42160	-0.35181713
222	0xbeb7bfc3	-0.3588849
223	0x3f2328a5	0.63733894
224	0x3eb692a6	0.3565876
225	0xbef0ce1b	-0.47032246
226	0xbe274274	-0.16333944
227	0x3e098255	0.13428624
228	0xbea31c6f	-0.3185763
229	0xbdd5024f	-0.10400831
230	0xbf6754e6	-0.9036392
231	0x3f449191	0.76784617
232	0x3ed8b99f	0.42329118
233	0x3ef4578e	0.4772305
234	0x3e68be04	0.22728735
235	0xbe82f9a3	-0.25581083
236	0xbc35ac39	-0.011088424
237	0x3f09d33e	0.53837955
238	0xbf2d937b	-0.6780316
239	0x3cb14719	0.021640347
240	0x3f429fb0	0.76024914
241	0xbf2d1c8e	-0.67621696
242	0xbdb2696c	-0.08711514
243	0x3ddad83a	0.10685773
244	0xbf3fbdcf	-0.74899
245	0xbf05820e	-0.5215157
246	0x3ea10d91	0.31455663
247	0xbc6dd495	-0.014516016
248	0x3e11fe73	0.14257221
249	0x3ed18a9d	0.40926066
250	0xbd9916a1	-0.07475019
251	0x3ebfa20e	0.37428325
252	0xbfadd3dd	-1.358028
253	0xbf208dc3	-0.6271631
254	0xbf19d983	-0.6009752
255	0x3d77299a	0.06034241

module.layer1.0.bias f4 [32]
0	0xbbbde6dc	-0.005795343
1	0x3e91c951	0.28473905
2	0xbde82737	-0.11335605
3	0xbcb7b67e	-0.022425886
4	0xbd5a9e72	-0.05337376
5	0xbcdc7682	-0.026911978
6	0xbd5545da	-0.05206857
7	0x3dfdffc3	0.12402298
8	0x3e3c1f72	0.1837137
9	0xbe9df128	-0.3084805
10	0xbb2b9ca7	-0.0026185901
11	0x3db10850	0.086441636
12	0xbd8847ff	-0.06654357
13	0xbb951300	-0.004549384
14	0xbe985593	-0.29752788
15	0xbd51f234	-0.051256374
16	0xbe39ed2e	-0.18156883
17	0xbd21fda6	-0.03954854
18	0xbc45d2eb	-0.012074213
19	0xbcf86bc0	-0.030324817
20	0xbea74d9a	-0.32676393
21	0xbe3d4de8	-0.1848675
22	0xbc044b19	-0.008074545
23	0xbda3c281	-0.07996083
24	0xbc5e65a0	-0.013574034
25	0x3da64ac6	0.08119731
26	0x3cc450cb	0.023964306
27	0xbc4577be	-0.012052475
28	0x3dfe4e0c	0.1241723
29	0x3eb9c9b5	0.36286703
30	0xbb8f26d4	-0.0043686423
31	0xbc2d81f4	-0.010590065

module.layer2.0.weight f4 [64, 32, 3, 3]
0	0x3e958bc7	0.29208204
1	0x3e0dc892	0.13846043
2	0x3e49199e	0.19638678
3	0xbea5e136	-0.32398385
4	0xbecda894	-0.40167677
5	0xbdd461c8	-0.10370213
6	0xbddc04d4	-0.107431084
7	0x3e136be0	0.1439662
8	0x3ecc0717	0.3984916
9	0xbeae3278	-0.3402288
10	0xbeb5f785	-0.35540405
11	0xbe4cb75f	-0.19991826
12	0x3d5220b5	0.051300723
13	0xbb835d2c	-0.0040089097
14	0x3deed984	0.116625816
15	0xbe24e3fc	-0.16102594
16	0xbe5c5541	-0.21516897
17	0x3e309475	0.17244132
18	0x3e512d5c	0.2042746
19	0xbce0fe73	-0.02746508
20	0xbd86df6e	-0.065855846
21	0x3e22b1c6	0.15888128
22	0xbe5c17d6	-0.21493468
23	0xbe114d65	-0.1418968
24	0xbf11bd82	-0.5692979
25	0xbf5d9892	-0.8656093
26	0xbe5a9a18	-0.21347845
27	0x3e108290	0.14112306
28	0x3d6b4405	0.057437915
29	0x3e6e7d08	0.23289883
30	0xbe88f80b	-0.26751742
31	0xbe26ec44	-0.16301066
32	0xbd95d465	-0.07315902
33	0xbd9126bf	-0.07087468
34	0xbe004d5f	-0.12529515
35	0x3daece1e	0.085354075
36	0x3e58c1a0	0.21167612
37	0x3e40e07c	0.18835634
38	0x3e33aa2f	0.17545389
39	0xbd1f40b1	-0.038880054
40	0xbd84d3da	-0.0648572
41	0x3d4144a7	0.047184613
42	0xbd5f13ee	-0.054462366
43	0xbd494654	-0.049139336
44	0x3e53e204	0.20691687
45	0x3e1b0733	0.15139465
46	0x3dc8d3e0	0.09806037
47	0x3e2c282d	0.16812201
48	0xbe929009	-0.28625515
49	0x3cbdea87	0.02318312
50	0x3edf7300	0.43642426
51	0x3d231e9d	0.039824117
52	0x3f15c32d	0.5850094
53	0x3f3dc5a7	0.7412972
54	0x3de70c29	0.11281616
55	0x3d01c173	0.03167863
56	0xbcdcdc52	-0.026960526
57	0x3c7ef656	0.015561661
58	0xbce9a0bc	-0.028519027
59	0xbe25b504	-0.16182333
60	0x3da5588e	0.08073531
61	0x3e49e5e2	0.197166
62	0x3c004364	0.007828567
63	0x3e3ad4a3	0.18245177
64	0x3d0e8390	0.034793437
65	0x3e12a1a6	0.14319476
66	0xbf2e170d	-0.6800392
67	0xbeedc4c4	-0.46439183
68	0xbed4c49e	-0.41556257
69	0x3e82c24e	0.25538868
70	0x3e9b8ac4	0.30379307
71	0x3f09b5af	0.5379285
72	0xbedb1912	-0.42792565
73	0xbed884e1	-0.4228888
74	0xbe7123e2	-0.23548844
75	0x3d2d35d2	0.042287655
76	0xbd781ffb	-0.060577374
77	0x3d2d1be5	0.04226293
78	0xbda4bdf6	-0.08044045
79	0xbd2d297f	-0.042275902
80	0x3b5f9fa6	0.0034122257
81	0x3d15aca0	0.03654158
82	0x3ce252e9	0.027627425
83	0x3d0bda17	0.034143534
84	0xbd0dba70	-0.03460163
85	0xbd56420b	-0.052309077
86	0xbd395265	-0.045244593
87	0x3ba1a98c	0.0049335416
88	0x3d20c39b	0.039249044
89	0x3c691775	0.014226784
90	0xbea0508e	-0.31311458
91	0xbec0be11	-0.3764501
92	0xbeabc231	-0.33546594
93	0x3daf7ae3	0.08568361
94	0xbddb6b34	-0.10713807
95	0xbbc80ece	-0.0061052805
96	0xbeab655b	-0.33475766
97	0xbdf715e1	-0.1206472
98	0x3ca0ecf6	0.019644242
99	0x3deb3e25	0.114864625
100	0xbb9679e4	-0.004592167
101	0x3e82c277	0.2553899
102	0xbf413c51	-0.7548266
103	0xbf2a7623	-0.6658651
104	0x3d8bf4bc	0.06833789
105	0xbdecf8ef	-0.11570918
106	0xbcbf85fa	-0.023379315
107	0x3eb197e8	0.34686208
108	0x3d9c4731	0.07630766
109	0xbdc73a00	-0.097278595
110	0x3d4656be	0.048422568
111	0xbc9eaf4c	-0.019370697
112	0xbd67b5c1	-0.05656982
113	0x3d4abaf5	0.049494702
114	0xbd6132b9	-0.054980014
115	0xbdd3a71d	-0.10334609
116	0xbd6dbc3d	-0.058040846
117	0x3e8c8355	0.27443948
118	0x3ddaa058	0.106751144
119	0x3e22c542	0.1589556
120	0xbdb0d31c	-0.08634016
121	0xbe40a7dc	-0.18814033
122	0xbda2bab1	-0.07945765
123	0xbd29be14	-0.04144104
124	0xb90e956c	-0.0001359784
125	0x3db135b8	0.08652824
126	0x3ed1507c	0.40881717
127	0x3c39df56	0.011344751
128	0x3e8077b4	0.25091326
129	0xbf19f02b	-0.6013209
130	0xbf380414	-0.7188122
131	0xbe1dcc83	-0.15410046
132	0x3f1f2558	0.6216636
133	0x3f15ff46	0.5859264
134	0x3f7a9ac1	0.97892386
135	0x3de02748	0.10944992
136	0x38154bf7	3.5595116e-05
137	0xbc67efa2	-0.014156254
138	0xbd20e1d5	-0.03927787
139	0xbd676f53	-0.05650265
140	0x3c1d71ed	0.009609682
141	0xbe002372	-0.12513521
142	0xbd1b807e	-0.037964337
143	0xbd2ee48d	-0.04269843
144	0xbf0595ea	-0.52181876
145	0xbee79ce1	-0.45236877
146	0xbe4c1895	-0.19931252
147	0x3e5e9d55	0.21739705
148	0xbdd21be3	-0.10259225
149	0x3ce9f590	0.028559476
150	0x3d8218d1	0.063523896
151	0xbe8c206f	-0.27368495
152	0x3e1490d7	0.14508377
153	0x3d334624	0.043768063
154	0x3c4741fa	0.012161726
155	0x3cad7e7a	0.021178473
156	0xbd6be087	-0.057587173
157	0xbd0c1a47	-0.034204748
158	0x3dd0f21d	0.102024294
159	0xbd0041fb	-0.031312924
160	0xbdf036cd	-0.117292024
161	0x3d69190d	0.056908656
162	0x3f81e070	1.0146618
163	0x3f50655b	0.81404656
164	0x3f0de1a3	0.5542242
165	0xbe8e0c68	-0.2774384
166	0xbec509b3	-0.38483962
167	0x3e3e65f1	0.18593575
168	0xbf6ce508	-0.92536974
169	0xbf943081	-1.1577302
170	0xbe924d70	-0.28574705
171	0x3d271fbb	0.040801745
172	0xbad3f66f	-0.0016171465
173	0xbbb23df4	-0.0054395143
174	0xbd2623ff	-0.040561672
175	0xbd177232	-0.03697414
176	0xbc1a650f	-0.009423508
177	0x3d3cb834	0.046074107
178	0xbd00d6f2	-0.031454988
179	0xbc2ee58f	-0.010674848
180	0x3da1777d	0.07884119
181	0x3b2b3429	0.002612362
182	0x3e823f63	0.25438985
183	0xbbbb44de	-0.0057149967
184	0xbe6d6899	-0.23184432
185	0x3d9b5b3c	0.07585761
186	0x3c58b81c	0.013227489
187	0x3db5c2c7	0.088750415
188	0x3dc1d0f2	0.09463681
189	0xbdcb9a13	-0.09941497
190	0xbe8f8f72	-0.28039128
191	0xbcc790ba	-0.024361003
192	0x3c475f99	0.012168788
193	0xbd9537c3	-0.07286026
194	0xbd4fb063	-0.050705325
195	0x3e82c3c1	0.25539973
196	0x3f519141	0.81862265
197	0x3f5821ce	0.8442658
198	0x3e82cc22	0.25546366
199	0x3edcb797	0.43108818
200	0x3e206574	0.15663701
201	0xbe6bcc79	-0.23027219
202	0xbdfa4393	-0.1221992
203	0xbeb5e3a2	-0.35525233
204	0x3df114b1	0.11771525
205	0x3e80dade	0.25166982
206	0x3db7023f	0.08935975
207	0x3e131519	0.14363517
208	0x3d11fb48	0.03564003
209	0x3dfb5d8b	0.12273701
210	0xbd0cc406	-0.03436663
211	0xbe2dafe1	-0.16961624
212	0xbe029f6e	-0.1275613
213	0xbdc13598	-0.0943405
214	0xbddad209	-0.10684592
215	0xbcc4c88f	-0.024021415
216	0xbd694c3d	-0.056957472
217	0xbd8f6fba	-0.07003732
218	0xbe98d629	-0.2985089
219	0x3d3a6603	0.045507442
220	0xbe2bbec0	-0.16771984
221	0x3e0ba2b9	0.13636293
222	0xbe80ffc2	-0.25195128
223	0xbeab5b26	-0.33467978
224	0xbd4d9e21	-0.05019963
225	0xbeb3930b	-0.35073122
226	0xbe9a9b85	-0.30196777
227	0xbf052b8c	-0.5201957
228	0xbd8dfa7e	-0.06932543
229	0x3cfe7413	0.031061208
230	0xbd7f67ad	-0.062354732
231	0x3da2f258	0.0795638
232	0x3afdb3d0	0.0019355956
233	0xbd90510f	-0.07046711
234	0x3e777864	0.24167019
235	0x3c473949	0.012159654
236	0xbdb45bee	-0.08806597
237	0xbd0a81d3	-0.033815216
238	0xbe6baea4	-0.23015839
239	0xbd097c84	-0.033566013
240	0xbe02acf6	-0.12761292
241	0xbe3667e5	-0.1781307
242	0x3d1db0cc	0.038498685
243	0x3dd11526	0.10209112
244	0xbd124d78	-0.03571841
245	0x3c35e48b	0.011101852
246	0x3c032fa2	0.008006962
247	0xbe8b1b46	-0.27169245
248	0xbba26ec5	-0.0049570524
249	0x3b4d4ed6	0.0031327507
250	0xbda1fd22	-0.079096094
251	0x3e658296	0.22413096
252	0xbde74948	-0.11293274
253	0xbd7e7c1e	-0.062130086
254	0x3e01174a	0.1260654
255	0x3d2f967c	0.042868122

module.layer2.0.bias f4 [64]
0	0xbd270ab2	-0.040781684
1	0xbd8517ab	-0.06498655
2	0xbe538398	-0.20655668
3	0xbd097159	-0.033555362
4	0x3de11e32	0.109920874
5	0x3daecb06	0.085348174
6	0xbd47dcc0	-0.048794508
7	0x3d145be1	0.036220435
8	0x3cca7572	0.024714205
9	0xbe877640	-0.26457405
10	0xbda17344	-0.07883313
11	0x3d884612	0.0665399
12	0xbe5892a1	-0.21149684
13	0xbdf84853	-0.1212317
14	0xbdea13d9	-0.11429567
15	0x3c445f52	0.011985617
16	0x3db3758e	0.08762656
17	0xbdd1d164	-0.10245016
18	0xbd80c420	-0.06287408
19	0xbe357f76	-0.17724404
20	0xbd82b6d9	-0.06382532
21	0xbdc36c0a	-0.09542091
22	0xbd75f70b	-0.06005005
23	0xbd9c8da1	-0.07644201
24	0xbd9f44da	-0.07776804
25	0x3d34e4db	0.044163566
26	0xbe897f13	-0.26854762
27	0xbdb02e82	-0.08602621
28	0xbd5b8ea8	-0.053602844
29	0xbda62d70	-0.08114135
30	0xbe27fd6e	-0.1640527
31	0x3db838fc	0.08995244
32	0xbe5df63f	-0.21675967
33	0xbe0d7dbd	-0.13817497
34	0xbcb60b83	-0.022222286
35	0x3dbf7dd6	0.09350173
36	0xbd70dd07	-0.058804538
37	0xbd84f733	-0.06492462
38	0x3ddd3cf6	0.10802643
39	0x3c07f84b	0.008298944
40	0x3d377f48	0.04479912
41	0xbdcbee36	-0.099575445
42	0x3daf468c	0.085583776
43	0xbd589355	-0.05287488
44	0x3cbf4b87	0.023351444
45	0xbe54b5b9	-0.20772447
46	0xbcf00bbb	-0.029302469
47	0x3d9f00d8	0.07763833
48	0xbd81ac27	-0.063316636
49	0xbde8c98a	-0.113665655
50	0x3d08b993	0.033380102
51	0xbdecfcb1	-0.115716346
52	0xbc4cc5f6	-0.012498369
53	0x3cdadc0c	0.026716255
54	0xbd6d5102	-0.057938583
55	0x3d99b0d4	0.075044304
56	0x3d50a594	0.050939158
57	0x3d19bfe3	0.037536513
58	0xbd4b15be	-0.04958128
59	0xbdb0b456	-0.08628146
60	0xbcc7974e	-0.02436414
61	0xbe2e12c1	-0.16999342
62	0xbe94d330	-0.29067373
63	0xbe503c86	-0.20335588

module.layer3.0.weight f4 [128, 64, 3, 3]
0	0xbef38727	-0.4756405
1	0xbd473314	-0.048632696
2	0xbe3fbbfe	-0.18724057
3	0xbe2c9970	-0.16855407
4	0x3d6f9c23	0.058498513
5	0xbe5d1d55	-0.2159322
6	0xbe1ca256	-0.15296301
7	0x3d6ab49a	0.05730114
8	0xbde2ca8d	-0.1107379
9	0x3b8ae9c6	0.0042392937
10	0x3c4efdb5	0.012633731
11	0xbc96b8e7	-0.018398715
12	0xbc7e796c	-0.015531879
13	0xbc2d1470	-0.010563955
14	0xba49a573	-0.00076921954
15	0xbc02dea6	-0.007987654
16	0x3cabe6db	0.020984104
17	0xbc75f3fa	-0.015011782
18	0x3d1842da	0.03717313
19	0xbe34fe13	-0.17675047
20	0x3c024ed0	0.007953361
21	0xbdf93ff9	-0.12170405
22	0xbe041dbe	-0.1290197
23	0x3a1e19ea	0.0006031083
24	0xbd8d5478	-0.06900877
25	0x3cb949b7	0.022618158
26	0x3e26ea85	0.163004
27	0xbdc7cb90	-0.09755623
28	0xbe441399	-0.19148101
29	0x3cc87e08	0.024474159
30	0xbdb2dbe6	-0.087333485
31	0xbd3ba067	-0.04580727
32	0xbce56aa3	-0.02800495
33	0xbd7f1496	-0.06227549
34	0xbc2835ef	-0.010266765
35	0xbdc42144	-0.095766574
36	0xbe7ecd5d	-0.24883027
37	0x3b890907	0.0041819843
38	0xbe97ec17	-0.2967231
39	0xbdb0f2aa	-0.086400345
40	0xbd2811f6	-0.041032754
41	0xbe90d11a	-0.28284532
42	0xbdb8ccbc	-0.09023425
43	0xbba2a79c	-0.0049638283
44	0xbd98fa33	-0.07469597
45	0xbe971867	-0.29510805
46	0xbd0552c1	-0.032549623
47	0xbea068fa	-0.3133009
48	0xbd7d440c	-0.061832473
49	0xbcebd1c2	-0.028786544
50	0xbe923d1d	-0.2856225
51	0xbdaaf2e7	-0.08347111
52	0x3a9253a0	0.0011163838
53	0xbdbd2524	-0.092356
54	0xbda240a9	-0.07922489
55	0xbd00dab8	-0.031458586
56	0x3c07f8be	0.008299051
57	0xbdf87f0b	-0.121336065
58	0xbd181a38	-0.03713438
59	0x3cef3cc0	0.029203773
60	0xbd87acca	-0.06624754
61	0xbd19dc27	-0.03756347
62	0x3c53ecaa	0.012934843
63	0xbecf528f	-0.40492675
64	0xbde2df67	-0.11077767
65	0xbe7535fc	-0.23946375
66	0xbe442c9d	-0.19157644
67	0xbd712dba	-0.0588815
68	0xbe3ee027	-0.18640195
69	0xbd9564b8	-0.07294601
70	0xbd2e0765	-0.04248752
71	0xbd27ec55	-0.04099687
72	0x3c81b926	0.015835356
73	0xbe49eb15	-0.19718583
74	0xbd6ce738	-0.057837695
75	0x3de7efdb	0.11325046
76	0xbdcfe923	-0.10151889
77	0xbe0b92c5	-0.13630207
78	0x3cff389a	0.03115492
79	0x3dc6672b	0.096876465
80	0xbd8a9064	-0.067658216
81	0x3e65c552	0.22438553
82	0xbe979beb	-0.29611143
83	0x3d06b205	0.032884616
84	0x3e8623f0	0.26199293
85	0xbe9e52e5	-0.30922619
86	0x3e4b8a60	0.19877005
87	0x3e840dcc	0.25791776
88	0xbd0e9a23	-0.034814965
89	0x3ecd7b7a	0.40133268
90	0xbecdc3a7	-0.40188333
91	0xbe77e128	-0.24206984
92	0xbdea029f	-0.11426281
93	0xbe9a87cd	-0.30181733
94	0xbdf546a1	-0.11976362
95	0xbe247f92	-0.16064289
96	0xbe7a2c17	-0.24430881
97	0x3dbf07bc	0.09327647
98	0xbdee14ca	-0.11625059
99	0xbdbfb335	-0.09360353
100	0xbdd5d44c	-0.10440883
101	0xbd7108da	-0.058846332
102	0xbe0fe90d	-0.14053746
103	0xbdf95e32	-0.121761695
104	0xbda66f7c	-0.08126733
105	0xbde5c507	-0.112192206
106	0xbd604f36	-0.05476304
107	0x3c423130	0.0118525475
108	0xbe3dd739	-0.18539132
109	0xbe269484	-0.16267592
110	0x3c8e9f14	0.017409839
111	0xbda841b4	-0.08215657
112	0xbc4f640f	-0.012658133
113	0x3dc1b7da	0.09458895
114	0x3bfa443b	0.0076375282
115	0x3d91e6e8	0.0712412
116	0x3deb807c	0.11499116
117	0x3d9b4b78	0.07582754
118	0x3e43c461	0.19117881
119	0x3ce42035	0.027847389
120	0xbe23567b	-0.15950958
121	0x3e667278	0.22504604
122	0x3d7d33c1	0.061816934
123	0xbe39a60d	-0.1812975
124	0x3eb36857	0.35040542
125	0x3e3d94b1	0.18513753
126	0x3db5f202	0.0888405
127	0x3dca15ff	0.09867477
128	0xbb9e751d	-0.0048357383
129	0xbd9b0e68	-0.07571107
130	0x3d8936bf	0.06699895
131	0x3d03b99e	0.03215944
132	0xbde07107	-0.10959058
133	0x3e8ae92a	0.27131015
134	0x3dd1d18d	0.10245047
135	0xbed1b3cd	-0.4095749
136	0xbd792da0	-0.060834527
137	0xbe9bdea0	-0.30443287
138	0xbdc38231	-0.095463164
139	0xbd488d83	-0.04896308
140	0xbe7e592b	-0.24838702
141	0xbddc2c06	-0.10750584
142	0x3cf9748c	0.030451082
143	0xbdcd13fb	-0.100135766
144	0xbe25b286	-0.16181383
145	0xbdbdbdae	-0.09264694
146	0xbdc30a83	-0.09523489
147	0xbe530126	-0.20605907
148	0xbe050009	-0.12988295
149	0xbd0f99d7	-0.035058822
150	0xbe034909	-0.1282083
151	0xbd12cad0	-0.03583795
152	0xbd4a953a	-0.04945872
153	0x3ea5cdc3	0.32383546
154	0x3e43b8d2	0.19113472
155	0x3d9d48f1	0.07679928
156	0x3da29a4e	0.079395875
157	0x3cb0b7a1	0.021571936
158	0x3e19a795	0.15005334
159	0x3e25d39d	0.16194005
160	0x3ddeb222	0.1087382
161	0x3ef3254e	0.474894
162	0xbef389ba	-0.47566015
163	0xbe0a3f34	-0.13500673
164	0xbe8367e6	-0.25665206
165	0xbd7d4b52	-0.06183941
166	0xbd105ccf	-0.03524476
167	0xbe5c3113	-0.21503095
168	0xbd41f021	-0.047348145
169	0x3d25acee	0.04044812
170	0xbe255a6f	-0.16147779
171	0x3e03d7f2	0.12875345
172	0x3ca6df6d	0.02037021
173	0x3d85a367	0.06525307
174	0x3e2acdd8	0.16680086
175	0x3d4d2d2b	0.050091904
176	0x3e4ac780	0.19802666
177	0x3e342fae	0.17596313
178	0x3e9adbd3	0.30245838
179	0x3ea4bfa1	0.3217745
180	0xbcdb1609	-0.026743906
181	0x3acfabd4	0.0015844055
182	0x3b9a6131	0.004711293
183	0xbbb6bb35	-0.005576516
184	0x3cd64b80	0.026159048
185	0x3cbff2a5	0.023431132
186	0xbc3390c5	-0.010959809
187	0x3c922c00	0.017843246
188	0x3d0ba111	0.03408915
189	0xbc1f6089	-0.009727606
190	0xbd8a0948	-0.067400515
191	0x3c996a61	0.018727483
192	0xbe05615c	-0.13025421
193	0xbdc4d212	-0.0961038
194	0xbd6b1d71	-0.057401124
195	0xbe121c28	-0.14268553
196	0x3d154919	0.036446664
197	0x3d0ac79a	0.03388176
198	0x3eb8c26e	0.36085838
199	0x3e985134	0.29749453
200	0x3e08a059	0.13342418
201	0xbe4a47b7	-0.1975392
202	0x3c08b9cc	0.008345079
203	0x3e4f2278	0.20227993
204	0xbd7e37ba	-0.062064864
205	0x3eb09dc0	0.34495354
206	0x3ef03311	0.4691396
207	0xbcb46d09	-0.022024648
208	0xbe581cd5	-0.21104749
209	0xbdb7fe25	-0.08984021
210	0x3de6bc6d	0.11266408
211	0xbd969337	-0.07352298
212	0xbdb9c92e	-0.09071575
213	0x3dcd55b1	0.1002611
214	0xbbbc932c	-0.005754849
215	0x3c4a367f	0.012342094
216	0xbcad08c2	-0.02112234
217	0xbe1daf90	-0.15399003
218	0x3c8d8faf	0.017280428
219	0xbdf5919c	-0.119906634
220	0xbdb6299d	-0.08894656
221	0xbd40a7f0	-0.047035158
222	0xbe1b782f	-0.15182565
223	0xbb97c6a5	-0.0046318346
224	0x3bac3d50	0.0052563325
225	0xbe89ef66	-0.2694046
226	0xbda290c1	-0.07937766
227	0xbe86ba39	-0.26313952
228	0xbdef4173	-0.11682405
229	0xbcbe8bff	-0.023260115
230	0xbe72937a	-0.2368907
231	0xbd8b3ac3	-0.06798317
232	0x3ca8fa93	0.020627296
233	0x3d326d74	0.043561414
234	0x3e0d3388	0.13789189
235	0xbeca5158	-0.39515185
236	0x3d98eb95	0.07466809
237	0x3e992bd2	0.29916245
238	0xbe330f44	-0.17486292
239	0x3e131487	0.143633
240	0x3e90a837	0.28253338
241	0xbd8b936a	-0.068152264
242	0x3e6ee0e8	0.23327982
243	0xbd952cc9	-0.07283933
244	0xbded78f8	-0.115953386
245	0xbd7764fe	-0.060399048
246	0xbd0d101e	-0.0344392
247	0xbd8369af	-0.06416642
248	0x3d786fd5	0.060653526
249	0xbd95344a	-0.07285364
250	0xbbd8a95e	-0.006611987
251	0x3e406dfa	0.18791953
252	0x3d6c1a5b	0.057642322
253	0xbe2bc784	-0.16775328
254	0x3d5c7b4b	0.05382852
255	0xbe15f1d4	-0.14643031

module.layer3.0.bias f4 [128]
0	0xbe2a9b54	-0.16660815
1	0x3c581e76	0.013190856
2	0xbc960704	-0.018313892
3	0x3e684523	0.22682624
4	0xbdad5cd3	-0.084649704
5	0xbde9b0c7	-0.11410671
6	0xbd28fae5	-0.041254897
7	0x3bbb7768	0.0057210214
8	0xbdd9c6b4	-0.10633603
9	0xbc568052	-0.013092117
10	0xbd213ef2	-0.03936667
11	0xbc2b061f	-0.010438471
12	0xbe5cba98	-0.21555555
13	0xbd90dbe8	-0.07073194
14	0xbdabc0e7	-0.083864026
15	0xbe7fccf4	-0.24980527
16	0xbd376867	-0.0447773
17	0xbe192e62	-0.149591
18	0xbc7cd12a	-0.015430728
19	0xbe292226	-0.16516933
20	0xbd091eb2	-0.03347654
21	0xbcf73024	-0.030174322
22	0x3d2fa8da	0.04288564
23	0xbca9059a	-0.020632554
24	0xbc4b74b0	-0.012417957
25	0xbc881d4f	-0.016615538
26	0x3c47e7e7	0.012201286
27	0xbd471183	-0.048600685
28	0xbd76d6be	-0.060263388
29	0xbcd0d089	-0.025490062
30	0xbe1ec851	-0.15506102
31	0x3d0f6d83	0.035016548
32	0xbd5563d9	-0.052097175
33	0x3cf82cc2	0.03029478
34	0xbd42b978	-0.047540158
35	0xbd4c0eb6	-0.049818717
36	0xbd377dff	-0.044797894
37	0x3911c7ab	0.0001390266
38	0xbd3133be	-0.043262236
39	0xbe0c8f4e	-0.13726541
40	0xbcc78061	-0.024353208
41	0x3c1ab364	0.009442184
42	0xbd24d4b9	-0.04024193
43	0xbe0502d0	-0.12989354
44	0xbddf86db	-0.109143935
45	0xbc8cbc78	-0.017179713
46	0xbe6e489f	-0.2326989
47	0x3d133a77	0.03594443
48	0x3d2981f3	0.041383695
49	0xbe4514a0	-0.19246149
50	0xbd3fe0a5	-0.046845097
51	0xbdaf552f	-0.08561169
52	0xbd5849b8	-0.05280468
53	0x3ca8b99d	0.02059632
54	0xbc92445e	-0.017854866
55	0xbe9d1cf5	-0.30686155
56	0xbd6a8652	-0.057257004
57	0xbe24ce4f	-0.16094325
58	0xbdc0ae3a	-0.09408231
59	0xbec6a67f	-0.387989
60	0xbbf34171	-0.0074235727
61	0xbd8d8ceb	-0.069116436
62	0xba2c2964	-0.0006567447
63	0x3d8ab067	0.06771927
64	0xbe35ea92	-0.17765263
65	0xbc913b6b	-0.017728528
66	0x3b1550b2	0.0022783694
67	0xbe6bfa3a	-0.23044673
68	0xbdeb30cc	-0.11483917
69	0x3db51cbe	0.08843373
70	0xbdc99911	-0.09843648
71	0x3e4e952d	0.20174094
72	0xbeafc61f	-0.34330842
73	0xbc1ae76d	-0.00945459
74	0x3cc73a17	0.024319692
75	0xbe44b41f	-0.19209336
76	0x3e36a02f	0.17834543
77	0xbde9c2fa	-0.11414142
78	0x3ce14f45	0.027503619
79	0x3c3721e4	0.011177514
80	0x3cb30c6a	0.021856505
81	0xbdae08a5	-0.084977426
82	0xbb59030a	-0.0033113384
83	0xbd8baace	-0.06819688
84	0x3bd01260	0.0063498467
85	0xbddfd23d	-0.10928772
86	0x3c931b79	0.017957436
87	0xbdae14f2	-0.08500089
88	0xbceb75eb	-0.028742751
89	0xbc9ab401	-0.01888466
90	0x3d0a988e	0.033836894
91	0xbe722c83	-0.23649792
92	0xbe20b36d	-0.15693446
93	0x3a2ed435	0.00066691946
94	0xbe94576b	-0.28972945
95	0xbe8e867e	-0.27836984
96	0xbd38d22f	-0.04512232
97	0xbc9dfe9f	-0.019286452
98	0xbda29856	-0.07939212
99	0xbcc78894	-0.024357118
100	0xbd6cd921	-0.057824258
101	0xbd89e248	-0.06732613
102	0x3aa3b5e9	0.0012490127
103	0xbd73e77c	-0.059546933
104	0xbb356ecc	-0.0027684448
105	0xbd72c4f2	-0.059269853
106	0xbd38309b	-0.04496823
107	0xbd15c836	-0.03656789
108	0xbbb842d2	-0.0056232
109	0xbd19eca6	-0.0375792
110	0xbe37bff1	-0.17944314
111	0xbc38a948	-0.011270829
112	0xbbca41a4	-0.0061723758
113	0xbd98b4c2	-0.07456352
114	0xbc0a9da3	-0.008460435
115	0xbd3473e7	-0.044055846
116	0xba8f4fe1	-0.001093384
117	0x3b9b0d1d	0.004731788
118	0x3ddf42a5	0.10901383
119	0x3c371b61	0.011175961
120	0xbd7414fc	-0.059590325
121	0xbdc419fe	-0.0957527
122	0x3d6c9188	0.057755977
123	0xbd85e6a0	-0.06538129
124	0xbd51e01c	-0.051239118
125	0xb89c335c	-7.448226e-05
126	0x3b5cead7	0.0033709311
127	0xbd46daa4	-0.048548356

module.fc1.weight f4 [64, 128]
0	0x3e50c207	0.20386516
1	0x3da0ba12	0.0784799
2	0xbd587551	-0.052846257
3	0xbe807d9b	-0.2509583
4	0xbeb69e51	-0.3566766
5	0xbae8cb2f	-0.0017760749
6	0xbc045c6e	-0.008078678
7	0xbdcd9736	-0.10038607
8	0xbda221dd	-0.07916615
9	0x3d1176e8	0.03551379
10	0x3e1b8925	0.15189035
11	0xbd78487d	-0.060616005
12	0x3f1e0434	0.61725163
13	0x3ddd6009	0.10809333
14	0x3e168c82	0.14702037
15	0x3e6c9283	0.23102765
16	0x3da0bfa9	0.07849056
17	0xbdf355d6	-0.11881606
18	0x3e39e8e5	0.18155248
19	0xbf20667e	-0.6265639
20	0x3e0c2c23	0.13688712
21	0xbdea70bb	-0.11447283
22	0xbdd13e8f	-0.1021701
23	0xbd5876fe	-0.052847855
24	0x3dfab373	0.122412585
25	0xbddffa06	-0.1093636
26	0x3ea85f64	0.32885277
27	0xbd93970e	-0.07206546
28	0xbdeb2f50	-0.114836335
29	0x3d239a26	0.03994193
30	0xbd0f1a7d	-0.03493737
31	0x3ce9a535	0.02852116
32	0x3e70df72	0.23522738
33	0x3cdf8f3a	0.027289975
34	0x3d40eb1c	0.047099218
35	0x3d94bbe9	0.072624035
36	0x3d1e6e9d	0.038679708
37	0xbd28532f	-0.041094955
38	0xbe58df8c	-0.21179026
39	0x3dbcb325	0.092138566
40	0xbeb60af9	-0.35555246
41	0xbda4833f	-0.08032846
42	0x3d011bb6	0.031520568
43	0xbcd4c69b	-0.025973609
44	0x3d24de21	0.0402509
45	0x3e1aa1be	0.15100762
46	0x3d9b5cfb	0.07586094
47	0x3e6065b5	0.21913798
48	0xbe943484	-0.28946316
49	0x3e7d34b4	0.24727136
50	0xbd1d66c0	-0.03842807
51	0xbea525f0	-0.32255507
52	0x3e4f2087	0.20227252
53	0x3c712335	0.014717867
54	0x3e22729f	0.15864037
55	0x3df02121	0.11725069
56	0xbe91288b	-0.28351244
57	0x3e306647	0.17226516
58	0xbdb7c4bd	-0.08973072
59	0xbee05e9c	-0.4382218
60	0x3d8141a5	0.06311349
61	0x3ea3c0c3	0.31983003
62	0x3b942474	0.004520947
63	0xbe7e8755	-0.24856313
64	0xbe81ca4d	-0.25349656
65	0x3e645077	0.2229632
66	0x3d1915da	0.037374355
67	0x3dd4a7c4	0.10383561
68	0xbe060def	-0.13091253
69	0x3e385425	0.18000849
70	0xbe20b476	-0.1569384
71	0xbeb9ea41	-0.36311534
72	0x3ef9cb15	0.48787752
73	0x3ce07360	0.027398765
74	0xbdf4b432	-0.11948432
75	0x3dcbc026	0.09948759
76	0xbebe646d	-0.37185994
77	0x3d15667e	0.036474697
78	0x3d7288b5	0.059212405
79	0x3d99aa29	0.075031586
80	0xbeaa7413	-0.33291683
81	0x3e3a2a89	0.18180288
82	0x3dcd82fb	0.10034748
83	0x3bf98bce	0.007615543
84	0x3d55882a	0.05213181
85	0x3e300a41	0.17191412
86	0x3bac8bd3	0.005265692
87	0x3f2138c6	0.62977254
88	0xbe9d477f	-0.3071861
89	0x3e04b07f	0.12957953
90	0x3e8ee141	0.2790623
91	0x3e422e62	0.18963006
92	0xbb98f770	-0.0046681687
93	0x3ceab7be	0.028652068
94	0x3e799fe4	0.243774
95	0x3f116a70	0.56803036
96	0x3d932dbf	0.0718646
97	0x3dd7b709	0.10532958
98	0x3d3ee2ee	0.046603136
99	0x3e82ac9b	0.25522313
100	0x3d9d512d	0.07681499
101	0x3ec2bac5	0.3803312
102	0x3d540fc8	0.051772863
103	0x3dc774f8	0.09739107
104	0xbedd509e	-0.4322557
105	0xbda965ec	-0.08271393
106	0xbdcd09e7	-0.10011654
107	0xbe1453ba	-0.14485064
108	0xbd3a72fc	-0.045519814
109	0xbd8a3a32	-0.06749381
110	0x3e9843ff	0.29739377
111	0xbc285537	-0.010274223
112	0xbd82f694	-0.06394687
113	0x3eb47f7a	0.35253507
114	0xbcb92574	-0.022600867
115	0xbd38775c	-0.045035705
116	0x3d818e99	0.063260265
117	0x3e2d6ed8	0.16936815
118	0xbe83ecde	-0.25766653
119	0x3e53f6e5	0.20699652
120	0x3d640d01	0.055676464
121	0x3e8565c4	0.26054204
122	0xbe1bf250	-0.15229154
123	0x3dc95727	0.09831076
124	0x3e31e3d4	0.17372066
125	0xbbdfe9b4	-0.0068332795
126	0x3bbd7f77	0.0057830173
127	0xbdabd7bc	-0.083907574
128	0x3a9f582a	0.0012157012
129	0x3d78b21d	0.060716737
130	0xbd152dcb	-0.036420625
131	0xbe502791	-0.20327593
132	0xbd1d8f64	-0.038466826
133	0xbe38becd	-0.18041535
134	0xbdb0b76d	-0.08628736
135	0xbe461add	-0.19346185
136	0x3b21111a	0.0024576844
137	0x3e217bd9	0.157699
138	0xbcc521c9	-0.024063962
139	0x3daff351	0.08591331
140	0x3d94257b	0.07233711
141	0x3d51731e	0.051135175
142	0xbe20989d	-0.15683217
143	0xbe14050a	-0.14455047
144	0xbd706125	-0.058686394
145	0xbe2fc905	-0.17166527
146	0xbde1f209	-0.11032493
147	0xbe19126d	-0.14948435
148	0xbdcadfe6	-0.099059865
149	0xbdc096a1	-0.0940373
150	0xbe599534	-0.21248323
151	0xbc52f650	-0.012876108
152	0x3d1506dd	0.0363835
153	0xbdc9062d	-0.09815631
154	0xbe1e92ca	-0.15485683
155	0x3d1ca761	0.038245562
156	0xbd005506	-0.031331085
157	0x3d930bc2	0.07179977
158	0xbe377918	-0.17917287
159	0x3dd0ad58	0.10189313
160	0xbd271f6c	-0.04080145
161	0xbcdb9fc3	-0.026809579
162	0x3da38910	0.07985127
163	0xbe35a979	-0.1774043
164	0xbdab8825	-0.08375577
165	0x3dd3be51	0.10339034
166	0x3d909555	0.07059733
167	0x3dfd077f	0.123549454
168	0xbe4a2d90	-0.19743943
169	0x3e0d9cf6	0.13829407
170	0x3e21c3f4	0.15797406
171	0x3dd67919	0.10472316
172	0x3d9aab31	0.075521834
173	0xbd439cc5	-0.04775693
174	0xbe3f7184	-0.18695647
175	0xbe2f222c	-0.1710288
176	0x3dd2ca31	0.10292471
177	0xbcf0b6cb	-0.029384037
178	0xbce337c1	-0.027736546
179	0xbe1faa24	-0.15592247
180	0x3ce0c5b1	0.027438017
181	0xbddfc8ee	-0.10926996
182	0x3d9716f5	0.073774256
183	0x3da897c3	0.08232071
184	0xbd1e6577	-0.038670983
185	0xbdd34ada	-0.10317011
186	0x3decc0a1	0.115601785
187	0x3d8a03b1	0.06738985
188	0x3e1d5cb5	0.15367396
189	0xbdf25c76	-0.11834042
190	0xbdfc9357	-0.1233279
191	0xbcc039e6	-0.023465108
192	0xbe428962	-0.1899772
193	0xbda68f7f	-0.081328385
194	0x3e0239ea	0.12717405
195	0x3c33a944	0.010965649
196	0x3c08ecfa	0.008357281
197	0xbe3bc8d3	-0.18338327
198	0x3dd8d172	0.105868235
199	0xbc468f97	-0.012119195
200	0x3de7e332	0.11322631
201	0x3c98f322	0.018670622
202	0x3e2c0edd	0.16802545
203	0xbd8f87ef	-0.07008349
204	0x3d08582c	0.033287212
205	0x3e0881f7	0.13330828
206	0xbdcf925b	-0.10135337
207	0x3dc8bf89	0.098021574
208	0x3d3fe9c0	0.04685378
209	0xbd98a63f	-0.07453584
210	0xbe0cfcc5	-0.13768299
211	0xbe187763	-0.14889292
212	0x3d5d1caf	0.053982433
213	0x3d6048a5	0.05475678
214	0xbc5f2c37	-0.0136213815
215	0x3d03c924	0.032174245
216	0xbe2a4f80	-0.1663189
217	0xbd4e1e1c	-0.050321683
218	0x3dcdfbb0	0.10057771
219	0xbe38eadb	-0.1805834
220	0xbe22917a	-0.15875807
221	0x3e19b81c	0.15011638
222	0x3da00a34	0.07814446
223	0xbbd53b92	-0.0065073455
224	0x3da8ec1c	0.08248159
225	0xbd49c994	-0.049264506
226	0xbd9ed9de	-0.077563986
227	0xbe4fe2a6	-0.20301303
228	0xbdc91cde	-0.09819959
229	0x3dd5e57a	0.1044416
230	0xbcb99cee	-0.022657838
231	0xbdf7b5c4	-0.12095216
232	0x3de18599	0.1101181
233	0x3dec783e	0.11546372
234	0x3d4024d9	0.04691014
235	0x3ceafb58	0.028684303
236	0xbd47fa36	-0.048822604
237	0xbcb5a38f	-0.022172717
238	0xbe04afa0	-0.1295762
239	0x3c8a5f2d	0.016891086
240	0x3cd2f778	0.025752768
241	0xbce6f243	-0.028191691
242	0xbe0c3b56	-0.1369451
243	0x3d93a542	0.07209255
244	0x3daea4b7	0.085275106
245	0x3dfcee31	0.12350119
246	0xbcbb2c7e	-0.022848364
247	0xbdc87f33	-0.09789886
248	0xbdf3e40c	-0.11908731
249	0x3d5f8ab4	0.054575637
250	0xbcddbb95	-0.027066985
251	0xbc65858b	-0.01400889
252	0x3dd70486	0.1049891
253	0xbe260163	-0.16211466
254	0x3e063452	0.13105896
255	0x3c40f611	0.011777417

module.fc1.bias f4 [64]
0	0xbe7da51d	-0.24770017
1	0xbdaa3434	-0.08310738
2	0x3db197d2	0.086715356
3	0x3df8ba62	0.12144925
4	0xbd0d06f9	-0.034430478
5	0xbdd4fe5f	-0.1040008
6	0xbce74f85	-0.02823616
7	0xbd67f566	-0.056630515
8	0x3d149d0d	0.036282588
9	0xbdd12168	-0.1021145
10	0xbd2ec7bd	-0.042670954
11	0x3e025c70	0.12730575
12	0xbe39327a	-0.18085662
13	0x3e39dc9c	0.18150562
14	0x3df84e11	0.12124265
15	0xbc4c83b9	-0.012482577
16	0x3d86496d	0.065569736
17	0xbdd0e31a	-0.10199566
18	0xbd9bf4c9	-0.076150484
19	0xbe295f4b	-0.16540258
20	0x3daf6fde	0.08566259
21	0x3abb24c9	0.0014277931
22	0x3d253421	0.040332917
23	0x3cd4c604	0.025973327
24	0x3c823c90	0.01589802
25	0xbe00a0bd	-0.12561317
26	0x3e31dca3	0.17369322
27	0x3c8a080f	0.016849546
28	0xbb76551a	-0.0037587346
29	0xbde7e5d4	-0.11323133
30	0xbdf0c7c5	-0.11756853
31	0x3df29f38	0.11846775
32	0x3d47e2e9	0.048800383
33	0xbe46c8fc	-0.19412607
34	0x3ca63fd3	0.020294106
35	0xbd1b849d	-0.037968267
36	0xbe1f831c	-0.15577358
37	0x3d819633	0.06327476
38	0x3e42fb24	0.19041115
39	0xba629868	-0.0008643926
40	0x3d7d0e0a	0.061780967
41	0x3d13f17b	0.036118966
42	0x3de194bd	0.11014698
43	0x3d9c12e1	0.07620788
44	0xbd48083f	-0.04883599
45	0xbbd26db6	-0.00642177
46	0xbc8aebee	-0.016958203
47	0xbc015b28	-0.0078952685
48	0x3d4e324b	0.05034093
49	0x3df49d58	0.119440734
50	0x3e010f64	0.12603527
51	0xbe4ff5b6	-0.20308575
52	0x3c58f94a	0.013243029
53	0x3d8595ab	0.065226875
54	0xbdb8f1ae	-0.09030472
55	0xbdc34a32	-0.09535636
56	0x3c3c35c2	0.011487426
57	0xbe84f4cf	-0.25968024
58	0xbd904b23	-0.07045581
59	0xbe479453	-0.19490175
60	0xbe32c275	-0.17456992
61	0x3de4825c	0.111576766
62	0x3e9338dd	0.2875432
63	0xbc696906	-0.014246231

module.layer4.0.weight f4 [64, 128]
0	0x3e50c207	0.20386516
1	0x3da0ba12	0.0784799
2	0xbd587551	-0.052846257
3	0xbe807d9b	-0.2509583
4	0xbeb69e51	-0.3566766
5	0xbae8cb2f	-0.0017760749
6	0xbc045c6e	-0.008078678
7	0xbdcd9736	-0.10038607
8	0xbda221dd	-0.07916615
9	0x3d1176e8	0.03551379
10	0x3e1b8925	0.15189035
11	0xbd78487d	-0.060616005
12	0x3f1e0434	0.61725163
13	0x3ddd6009	0.10809333
14	0x3e168c82	0.14702037
15	0x3e6c9283	0.23102765
16	0x3da0bfa9	0.07849056
17	0xbdf355d6	-0.11881606
18	0x3e39e8e5	0.18155248
19	0xbf20667e	-0.6265639
20	0x3e0c2c23	0.13688712
21	0xbdea70bb	-0.11447283
22	0xbdd13e8f	-0.1021701
23	0xbd5876fe	-0.052847855
24	0x3dfab373	0.122412585
25	0xbddffa06	-0.1093636
26	0x3ea85f64	0.32885277
27	0xbd93970e	-0.07206546
28	0xbdeb2f50	-0.114836335
29	0x3d239a26	0.03994193
30	0xbd0f1a7d	-0.03493737
31	0x3ce9a535	0.02852116
32	0x3e70df72	0.23522738
33	0x3cdf8f3a	0.027289975
34	0x3d40eb1c	0.047099218
35	0x3d94bbe9	0.072624035
36	0x3d1e6e9d	0.038679708
37	0xbd28532f	-0.041094955
38	0xbe58df8c	-0.21179026
39	0x3dbcb325	0.092138566
40	0xbeb60af9	-0.35555246
41	0xbda4833f	-0.08032846
42	0x3d011bb6	0.031520568
43	0xbcd4c69b	-0.025973609
44	0x3d24de21	0.0402509
45	0x3e1aa1be	0.15100762
46	0x3d9b5cfb	0.07586094
47	0x3e6065b5	0.21913798
48	0xbe943484	-0.28946316
49	0x3e7d34b4	0.24727136
50	0xbd1d66c0	-0.03842807
51	0xbea525f0	-0.32255507
52	0x3e4f2087	0.20227252
53	0x3c712335	0.014717867
54	0x3e22729f	0.15864037
55	0x3df02121	0.11725069
56	0xbe91288b	-0.28351244
57	0x3e306647	0.17226516
58	0xbdb7c4bd	-0.08973072
59	0xbee05e9c	-0.4382218
60	0x3d8141a5	0.06311349
61	0x3ea3c0c3	0.31983003
62	0x3b942474	0.004520947
63	0xbe7e8755	-0.24856313
64	0xbe81ca4d	-0.25349656
65	0x3e645077	0.2229632
66	0x3d1915da	0.037374355
67	0x3dd4a7c4	0.10383561
68	0xbe060def	-0.13091253
69	0x3e385425	0.18000849
70	0xbe20b476	-0.1569384
71	0xbeb9ea41	-0.36311534
72	0x3ef9cb15	0.48787752
73	0x3ce07360	0.027398765
74	0xbdf4b432	-0.11948432
75	0x3dcbc026	0.09948759
76	0xbebe646d	-0.37185994
77	0x3d15667e	0.036474697
78	0x3d7288b5	0.059212405
79	0x3d99aa29	0.075031586
80	0xbeaa7413	-0.33291683
81	0x3e3a2a89	0.18180288
82	0x3dcd82fb	0.10034748
83	0x3bf98bce	0.007615543
84	0x3d55882a	0.05213181
85	0x3e300a41	0.17191412
86	0x3bac8bd3	0.005265692
87	0x3f2138c6	0.62977254
88	0xbe9d477f	-0.3071861
89	0x3e04b07f	0.12957953
90	0x3e8ee141	0.2790623
91	0x3e422e62	0.18963006
92	0xbb98f770	-0.0046681687
93	0x3ceab7be	0.028652068
94	0x3e799fe4	0.243774
95	0x3f116a70	0.56803036
96	0x3d932dbf	0.0718646
97	0x3dd7b709	0.10532958
98	0x3d3ee2ee	0.046603136
99	0x3e82ac9b	0.25522313
100	0x3d9d512d	0.07681499
101	0x3ec2bac5	0.3803312
102	0x3d540fc8	0.051772863
103	0x3dc774f8	0.09739107
104	0xbedd509e	-0.4322557
105	0xbda965ec	-0.08271393
106	0xbdcd09e7	-0.10011654
107	0xbe1453ba	-0.14485064
108	0xbd3a72fc	-0.045519814
109	0xbd8a3a32	-0.06749381
110	0x3e9843ff	0.29739377
111	0xbc285537	-0.010274223
112	0xbd82f694	-0.06394687
113	0x3eb47f7a	0.35253507
114	0xbcb92574	-0.022600867
115	0xbd38775c	-0.045035705
116	0x3d818e99	0.063260265
117	0x3e2d6ed8	0.16936815
118	0xbe83ecde	-0.25766653
119	0x3e53f6e5	0.20699652
120	0x3d640d01	0.055676464
121	0x3e8565c4	0.26054204
122	0xbe1bf250	-0.15229154
123	0x3dc95727	0.09831076
124	0x3e31e3d4	0.17372066
125	0xbbdfe9b4	-0.0068332795
126	0x3bbd7f77	0.0057830173
127	0xbdabd7bc	-0.083907574
128	0x3a9f582a	0.0012157012
129	0x3d78b21d	0.060716737
130	0xbd152dcb	-0.036420625
131	0xbe502791	-0.20327593
132	0xbd1d8f64	-0.038466826
133	0xbe38becd	-0.18041535
134	0xbdb0b76d	-0.08628736
135	0xbe461add	-0.19346185
136	0x3b21111a	0.0024576844
137	0x3e217bd9	0.157699
138	0xbcc521c9	-0.024063962
139	0x3daff351	0.08591331
140	0x3d94257b	0.07233711
141	0x3d51731e	0.051135175
142	0xbe20989d	-0.15683217
143	0xbe14050a	-0.14455047
144	0xbd706125	-0.058686394
145	0xbe2fc905	-0.17166527
146	0xbde1f209	-0.11032493
147	0xbe19126d	-0.14948435
148	0xbdcadfe6	-0.099059865
149	0xbdc096a1	-0.0940373
150	0xbe599534	-0.21248323
151	0xbc52f650	-0.012876108
152	0x3d1506dd	0.0363835
153	0xbdc9062d	-0.09815631
154	0xbe1e92ca	-0.15485683
155	0x3d1ca761	0.038245562
156	0xbd005506	-0.031331085
157	0x3d930bc2	0.07179977
158	0xbe377918	-0.17917287
159	0x3dd0ad58	0.10189313
160	0xbd271f6c	-0.04080145
161	0xbcdb9fc3	-0.026809579
162	0x3da38910	0.07985127
163	0xbe35a979	-0.1774043
164	0xbdab8825	-0.08375577
165	0x3dd3be51	0.10339034
166	0x3d909555	0.07059733
167	0x3dfd077f	0.123549454
168	0xbe4a2d90	-0.19743943
169	0x3e0d9cf6	0.13829407
170	0x3e21c3f4	0.15797406
171	0x3dd67919	0.10472316
172	0x3d9aab31	0.075521834
173	0xbd439cc5	-0.04775693
174	0xbe3f7184	-0.18695647
175	0xbe2f222c	-0.1710288
176	0x3dd2ca31	0.10292471
177	0xbcf0b6cb	-0.029384037
178	0xbce337c1	-0.027736546
179	0xbe1faa24	-0.15592247
180	0x3ce0c5b1	0.027438017
181	0xbddfc8ee	-0.10926996
182	0x3d9716f5	0.073774256
183	0x3da897c3	0.08232071
184	0xbd1e6577	-0.038670983
185	0xbdd34ada	-0.10317011
186	0x3decc0a1	0.115601785
187	0x3d8a03b1	0.06738985
188	0x3e1d5cb5	0.15367396
189	0xbdf25c76	-0.11834042
190	0xbdfc9357	-0.1233279
191	0xbcc039e6	-0.023465108
192	0xbe428962	-0.1899772
193	0xbda68f7f	-0.081328385
194	0x3e0239ea	0.12717405
195	0x3c33a944	0.010965649
196	0x3c08ecfa	0.008357281
197	0xbe3bc8d3	-0.18338327
198	0x3dd8d172	0.105868235
199	0xbc468f97	-0.012119195
200	0x3de7e332	0.11322631
201	0x3c98f322	0.018670622
202	0x3e2c0edd	0.16802545
203	0xbd8f87ef	-0.07008349
204	0x3d08582c	0.033287212
205	0x3e0881f7	0.13330828
206	0xbdcf925b	-0.10135337
207	0x3dc8bf89	0.098021574
208	0x3d3fe9c0	0.04685378
209	0xbd98a63f	-0.07453584
210	0xbe0cfcc5	-0.13768299
211	0xbe187763	-0.14889292
212	0x3d5d1caf	0.053982433
213	0x3d6048a5	0.05475678
214	0xbc5f2c37	-0.0136213815
215	0x3d03c924	0.032174245
216	0xbe2a4f80	-0.1663189
217	0xbd4e1e1c	-0.050321683
218	0x3dcdfbb0	0.10057771
219	0xbe38eadb	-0.1805834
220	0xbe22917a	-0.15875807
221	0x3e19b81c	0.15011638
222	0x3da00a34	0.07814446
223	0xbbd53b92	-0.0065073455
224	0x3da8ec1c	0.08248159
225	0xbd49c994	-0.049264506
226	0xbd9ed9de	-0.077563986
227	0xbe4fe2a6	-0.20301303
228	0xbdc91cde	-0.09819959
229	0x3dd5e57a	0.1044416
230	0xbcb99cee	-0.022657838
231	0xbdf7b5c4	-0.12095216
232	0x3de18599	0.1101181
233	0x3dec783e	0.11546372
234	0x3d4024d9	0.04691014
235	0x3ceafb58	0.028684303
236	0xbd47fa36	-0.048822604
237	0xbcb5a38f	-0.022172717
238	0xbe04afa0	-0.1295762
239	0x3c8a5f2d	0.016891086
240	0x3cd2f778	0.025752768
241	0xbce6f243	-0.028191691
242	0xbe0c3b56	-0.1369451
243	0x3d93a542	0.07209255
244	0x3daea4b7	0.085275106
245	0x3dfcee31	0.12350119
246	0xbcbb2c7e	-0.022848364
247	0xbdc87f33	-0.09789886
248	0xbdf3e40c	-0.11908731
249	0x3d5f8ab4	0.054575637
250	0xbcddbb95	-0.027066985
251	0xbc65858b	-0.01400889
252	0x3dd70486	0.1049891
253	0xbe260163	-0.16211466
254	0x3e063452	0.13105896
255	0x3c40f611	0.011777417

module.layer4.0.bias f4 [64]
0	0xbe7da51d	-0.24770017
1	0xbdaa3434	-0.08310738
2	0x3db197d2	0.086715356
3	0x3df8ba62	0.12144925
4	0xbd0d06f9	-0.034430478
5	0xbdd4fe5f	-0.1040008
6	0xbce74f85	-0.02823616
7	0xbd67f566	-0.056630515
8	0x3d149d0d	0.036282588
9	0xbdd12168	-0.1021145
10	0xbd2ec7bd	-0.042670954
11	0x3e025c70	0.12730575
12	0xbe39327a	-0.18085662
13	0x3e39dc9c	0.18150562
14	0x3df84e11	0.12124265
15	0xbc4c83b9	-0.012482577
16	0x3d86496d	0.065569736
17	0xbdd0e31a	-0.10199566
18	0xbd9bf4c9	-0.076150484
19	0xbe295f4b	-0.16540258
20	0x3daf6fde	0.08566259
21	0x3abb24c9	0.0014277931
22	0x3d253421	0.040332917
23	0x3cd4c604	0.025973327
24	0x3c823c90	0.01589802
25	0xbe00a0bd	-0.12561317
26	0x3e31dca3	0.17369322
27	0x3c8a080f	0.016849546
28	0xbb76551a	-0.0037587346
29	0xbde7e5d4	-0.11323133
30	0xbdf0c7c5	-0.11756853
31	0x3df29f38	0.11846775
32	0x3d47e2e9	0.048800383
33	0xbe46c8fc	-0.19412607
34	0x3ca63fd3	0.020294106
35	0xbd1b849d	-0.037968267
36	0xbe1f831c	-0.15577358
37	0x3d819633	0.06327476
38	0x3e42fb24	0.19041115
39	0xba629868	-0.0008643926
40	0x3d7d0e0a	0.061780967
41	0x3d13f17b	0.036118966
42	0x3de194bd	0.11014698
43	0x3d9c12e1	0.07620788
44	0xbd48083f	-0.04883599
45	0xbbd26db6	-0.00642177
46	0xbc8aebee	-0.016958203
47	0xbc015b28	-0.0078952685
48	0x3d4e324b	0.05034093
49	0x3df49d58	0.119440734
50	0x3e010f64	0.12603527
51	0xbe4ff5b6	-0.20308575
52	0x3c58f94a	0.013243029
53	0x3d8595ab	0.065226875
54	0xbdb8f1ae	-0.09030472
55	0xbdc34a32	-0.09535636
56	0x3c3c35c2	0.011487426
57	0xbe84f4cf	-0.25968024
58	0xbd904b23	-0.07045581
59	0xbe479453	-0.19490175
60	0xbe32c275	-0.17456992
61	0x3de4825c	0.111576766
62	0x3e9338dd	0.2875432
63	0xbc696906	-0.014246231

module.fc2.weight f4 [9, 64]
0	0x3e6fc837	0.2341622
1	0x3de44879	0.111466356
2	0xbeb4b640	-0.35295296
3	0xbf27a221	-0.65481764
4	0x3bfdfaa8	0.007750828
5	0x3c72a66c	0.014810186
6	0xbb8dc036	-0.004325892
7	0x3dd68fcc	0.10476646
8	0xbcdfe136	-0.027329069
9	0x3db91dfb	0.090389214
10	0x3e5e30b6	0.21698269
11	0x3dcce7ba	0.10005136
12	0x3e6b4f4c	0.22979468
13	0x3e83181f	0.2560434
14	0xbf190a6f	-0.59781545
15	0x3e8a6351	0.27028897
16	0x3e19dece	0.150264
17	0xbe8996f6	-0.26872987
18	0xbce9c6ae	-0.02853712
19	0xbec02a12	-0.37532097
20	0x3e3ccdf0	0.18437934
21	0x3dda9c7d	0.10674379
22	0xbe090b78	-0.13383281
23	0xbe070fc8	-0.13189614
24	0xbcee384f	-0.029079584
25	0x3ea5e48e	0.32400936
26	0xbcb6ea0c	-0.0223284
27	0xbb8a2981	-0.0042163734
28	0x3e6489e9	0.22318234
29	0xbca71628	-0.020396307
30	0x3d0eeeff	0.034895893
31	0x3d8ee4a6	0.06977205
32	0x3d370647	0.04468372
33	0x3eeff674	0.46867716
34	0xbe1a5f05	-0.1507531
35	0xbe653d7d	-0.22386737
36	0x3e58a556	0.2115682
37	0xbd8fb6c3	-0.07017281
38	0xbd96e0f2	-0.07367124
39	0x3cf24438	0.029573545
40	0x3e898fb4	0.2686745
41	0xbdef88d4	-0.1169602
42	0xbd368abf	-0.044565912
43	0x3bdd3fdd	0.006751998
44	0x3d9efe2d	0.07763324
45	0xbcafb48f	-0.021448402
46	0xbdd21a28	-0.10258895
47	0x3de92238	0.1138348
48	0x3e2c9cf9	0.16856755
49	0xbe9b9341	-0.30385783
50	0xbd9d40e8	-0.076783955
51	0x3e8464e8	0.25858235
52	0xbe3b61c9	-0.18299021
53	0xbe752b6c	-0.23942345
54	0x3eb4a4ef	0.35282084
55	0x3e0b7294	0.13617927
56	0xbe46b91f	-0.19406556
57	0xbe82b407	-0.25527975
58	0x3cf3f86b	0.02978154
59	0x3e93dd14	0.28879607
60	0xbd2c5b40	-0.04207921
61	0xbdf23a4a	-0.11827524
62	0xbed53e85	-0.4164926
63	0x3dc73adc	0.097280234
64	0x3ea92ee4	0.33043587
65	0xbe4375a2	-0.19087842
66	0xbdb98d81	-0.09060193
67	0x3e6d6c1a	0.23185769
68	0xbeb1cee5	-0.3472816
69	0x3e96a234	0.29420626
70	0x3d11ee1b	0.035627466
71	0xbdf11c8f	-0.11773025
72	0xbe7b7c0a	-0.24559036
73	0x3b1ed9ab	0.0024238627
74	0x3e0e162a	0.13875642
75	0xbf4b56a8	-0.794291
76	0xbed00225	-0.40626636
77	0x3bbb08b0	0.0057078227
78	0xbe6f7d54	-0.23387653
79	0xbe5ac1a8	-0.21362936
80	0x3edff26c	0.4373964
81	0xbbe119b5	-0.0068695196
82	0x3e522636	0.20522389
83	0xbe8142b0	-0.2524619
84	0xbeea81fc	-0.45802295
85	0xbdbeb63b	-0.093121015
86	0xbb95ff8d	-0.004577583
87	0x3da9358e	0.08262168
88	0x3e63adcc	0.22234267
89	0x3e5175b1	0.20455052
90	0x3e8ca728	0.2747128
91	0xbc17322b	-0.00922827
92	0xbe94db0b	-0.29073367
93	0xbe512537	-0.20424353
94	0x3d1a8b1d	0.037730325
95	0xbee7d6c3	-0.45281038
96	0x3e19f92b	0.15036456
97	0xbe3c0f7a	-0.18365279
98	0xbe67a735	-0.22622378
99	0x3e53815a	0.20654812
100	0x3e145aba	0.14487734
101	0xbe03e2f8	-0.1287955
102	0xbe28ce3f	-0.16484927
103	0xbe06fc94	-0.13182288
104	0x3da2e7a9	0.07954342
105	0xbf75c288	-0.95999956
106	0xbedfa033	-0.4367691
107	0x3b5aadce	0.0033367756
108	0xbe469372	-0.19392183
109	0xbd4a0a05	-0.04932596
110	0xbe84a685	-0.25908294
111	0xbe07d9f0	-0.1326673
112	0x3d100221	0.03515828
113	0xbd29cdad	-0.041455913
114	0x3edda46f	0.43289515
115	0x3f0cbda4	0.5497687
116	0x3d4f7201	0.050645832
117	0x3e80b613	0.25138912
118	0x3e918d12	0.2842794
119	0x3e86a14d	0.26294938
120	0xbc5f8ce4	-0.013644431
121	0xbd0f030b	-0.03491501
122	0xbf067fe7	-0.52538913
123	0x3e96d413	0.29458675
124	0x3e033ed8	0.12816942
125	0x3e1c6ce7	0.15275918
126	0xbdfcc995	-0.12343136
127	0x3defe851	0.11714233
128	0x3e7f5dde	0.24938151
129	0x3e11d0dc	0.1423983
130	0x3cb9cabe	0.022679683
131	0x3ecb096c	0.39655626
132	0x3ed7bb5e	0.42135137
133	0xbd44f069	-0.048080835
134	0xbe204600	-0.15651703
135	0x3e02702c	0.12738103
136	0xbea327ba	-0.31866246
137	0x3e836e43	0.2567006
138	0x3d1067bf	0.03525519
139	0xbdf3255c	-0.1187236
140	0x3ec70634	0.3887192
141	0x3f09c508	0.5381627
142	0x3e374836	0.1789864
143	0x3dd54209	0.10412986
144	0xbdc48d04	-0.09597209
145	0xbe50e7e5	-0.2040096
146	0xbe5d10f1	-0.21588494
147	0x3d9bc47f	0.07605838
148	0x3c340212	0.010986822
149	0xbe152330	-0.14564204
150	0x3c092a2a	0.008371869
151	0x3de85623	0.11344554
152	0xbe071af1	-0.13193871
153	0x3f07464b	0.52841634
154	0xbf43bbae	-0.7645825
155	0x3e0d1cad	0.1378047
156	0x3d9ea72b	0.077467285
157	0x3e12750b	0.14302461
158	0xbd4530f4	-0.04814239
159	0xbf1bf1f3	-0.6091606
160	0xbd2a0f93	-0.04151876
161	0xbbeb33e9	-0.007177819
162	0x3e8740d1	0.26416638
163	0xbe0388d7	-0.12845169
164	0xbe162ddc	-0.14665931
165	0xbe4fdff7	-0.2030028
166	0x3d8e4a0c	0.06947717
167	0xbe5b3000	-0.2140503
168	0xbddb1c24	-0.10698727
169	0xbdeb455d	-0.11487839
170	0xbf09cf4e	-0.53831947
171	0x3f115e10	0.56784153
172	0x3e280a82	0.16410258
173	0x3e453956	0.19260153
174	0x3ec4cf48	0.38439393
175	0xbe80e894	-0.25177443
176	0xbe315239	-0.17316522
177	0xbe56aaf4	-0.20963651
178	0xbe5ebec1	-0.21752454
179	0xbe05db11	-0.13071848
180	0xb8765102	-5.8726415e-05
181	0x3df7ab32	0.120932
182	0x3e892c30	0.26791525
183	0x3e7519d8	0.2393564
184	0x3df81e8d	0.12115202
185	0xbd9a225b	-0.07526084
186	0x3e7cb49b	0.2467827
187	0xbe499f9c	-0.19689792
188	0x3edcecd8	0.43149447
189	0xbe8da365	-0.27663723
190	0xbeaa65ef	-0.33280894
191	0x3da19a43	0.07890751
192	0xbdd3a61c	-0.10334417
193	0xbe237e49	-0.15966143
194	0x3d8e416a	0.069460705
195	0x3d4fffb9	0.050780986
196	0xbba97cd5	-0.005172352
197	0xbde9c9de	-0.11415456
198	0x3e10657d	0.14101215
199	0x3ebc8b5a	0.36825067
200	0xbe7a3bca	-0.2443687
201	0x3dd46739	0.10371251
202	0x3e890cdb	0.2676762
203	0x3d02ef5c	0.031966552
204	0xbf0eea1b	-0.55825967
205	0xbf008048	-0.5019574
206	0xbcc8f665	-0.024531553
207	0xbdf14ea9	-0.11782581
208	0xbebc5fd7	-0.3679187
209	0xbb8d0462	-0.004303501
210	0x3e52d04c	0.20587271
211	0xbdab09ca	-0.083514765
212	0x3f0390d7	0.51392883
213	0x3e4089c2	0.1880255
214	0x3de23c6d	0.110466816
215	0xbe64ea54	-0.22355014
216	0xbd8bbf98	-0.06823653
217	0xbf32a3f4	-0.6978142
218	0x3f243f9b	0.64159554
219	0xbe01d5b6	-0.1267918
220	0xbe29d287	-0.16584216
221	0xbd5a4c41	-0.053295378
222	0x3ea6613a	0.32496053
223	0x3ead60ea	0.33863002
224	0xbdbd2bdb	-0.092368804
225	0x3dbc09de	0.091815695
226	0xbe0b8a09	-0.13626875
227	0xbd31cfe6	-0.043411158
228	0xbe2a175e	-0.16610476
229	0x3dd36497	0.1032192
230	0xbf5285a7	-0.8223519
231	0xbe818751	-0.2529855
232	0xbe1f0545	-0.15529354
233	0xbe96cecb	-0.29454646
234	0xbe97a857	-0.2962062
235	0xbe9ec4f0	-0.31009626
236	0xbe3d4109	-0.1848184
237	0x3d5b1294	0.053484514
238	0xbee94f6f	-0.45568416
239	0xbe96e23a	-0.29469472
240	0x3e5399c3	0.20664124
241	0x3ca2561c	0.01981645
242	0x3e5e4225	0.2170492
243	0x3df8bf3c	0.1214585
244	0xbd8e39cc	-0.06944618
245	0x3e37dce4	0.17955357
246	0x3d5b6788	0.053565532
247	0x3caf1511	0.02137235
248	0x3e307e39	0.1723565
249	0xbe8b1d4d	-0.27170792
250	0xbd4e2377	-0.05032679
251	0xbeb6e178	-0.35718894
252	0xbeb9db10	-0.36299944
253	0x3e2ba942	0.16763785
254	0xbdc61136	-0.096712515
255	0xbe9030b9	-0.28162172

module.fc2.bias f4 [9]
0	0xbe791082	-0.24322703
1	0xbdd91287	-0.10599237
2	0xbda31ea2	-0.07964827
3	0x3bd0c204	0.0063707847
4	0x3d374356	0.04474195
5	0x3ec9992d	0.39374676
6	0xbddf1068	-0.10891801
7	0x3dcb700f	0.09933483
8	0x3dc241c7	0.09485202
